…
('data_path', '/home/local/ASUAD/schhabr6/DB/digits/')
('dset', 's2m')
('log_step', 50)
('lr', 0.0001)
('method', 'cutmix')
('model_path', './model/s2m/cutmix')
('num_classes', 10)
('num_workers', 8)
('p_thresh', 0.9)
('seed', 100)
('source', 'svhn')
('src_epochs', 50)
('src_model_path', './model/s2m/src')
('target', 'mnist')
('weight_decay', 1e-05)

Started at 2021-09-19 21:09:21
Using downloaded and verified file: /home/local/ASUAD/schhabr6/DB/digits/svhn/train_32x32.mat
Using downloaded and verified file: /home/local/ASUAD/schhabr6/DB/digits/svhn/test_32x32.mat
Loading Source model...
--------Network--------
encoder(
  (conv1): Conv2d(3, 32, kernel_size=(3, 3), stride=(1, 1), padding=(1, 1))
  (conv2): Conv2d(32, 32, kernel_size=(3, 3), stride=(1, 1), padding=(1, 1))
  (pool3): MaxPool2d(kernel_size=2, stride=2, padding=0, dilation=1, ceil_mode=False)
  (conv4): Conv2d(32, 64, kernel_size=(3, 3), stride=(1, 1), padding=(1, 1))
  (conv5): Conv2d(64, 64, kernel_size=(3, 3), stride=(1, 1), padding=(1, 1))
  (pool6): MaxPool2d(kernel_size=2, stride=2, padding=0, dilation=1, ceil_mode=False)
  (conv7): Conv2d(64, 128, kernel_size=(3, 3), stride=(1, 1), padding=(1, 1))
  (conv8): Conv2d(128, 128, kernel_size=(3, 3), stride=(1, 1), padding=(1, 1))
  (pool9): MaxPool2d(kernel_size=2, stride=2, padding=0, dilation=1, ceil_mode=False)
  (fc1): Linear(in_features=2048, out_features=128, bias=True)
)
classifier(
  (fc1): Linear(in_features=128, out_features=10, bias=True)
)
--------Feature Disc--------
discriminator(
  (l1): Linear(in_features=128, out_features=1024, bias=True)
  (l2): Linear(in_features=1024, out_features=1024, bias=True)
  (l3): Linear(in_features=1024, out_features=1, bias=True)
)
Source iters per epoch: 572
Target iters per epoch: 468
iters per epoch: 468
Ep: 1/200, iter: 1/468, total_iters: 1, s_err: 0.0045, d_err: 0.6835, alpha: 0.0000
Ep: 1/200, iter: 51/468, total_iters: 51, s_err: 0.0155, d_err: 0.6459, alpha: 0.0027
Ep: 1/200, iter: 101/468, total_iters: 101, s_err: 0.0029, d_err: 0.6471, alpha: 0.0053
Ep: 1/200, iter: 151/468, total_iters: 151, s_err: 0.0056, d_err: 0.6144, alpha: 0.0080
…
